model_scratch.pt (torch_old, 78174 bytes, 8 tensors)

conv1.weight f4 [16, 3, 2, 2]
00000000: 37da aa3e 4103 8f3e 95cd 513e 76c9 963e
00000010: 8fa2 22be 039f a2be ff02 a5be caec 5ebe
00000020: 4a60 b33e 2353 24be f9f3 b03e 8e8d 6dbd
00000030: acc5 943e e18d 8bbe af3c 213f 451b 0abf
00000040: fe73 353f 49a2 42bf ff76 463f c651 62bf
00000050: 0e93 533f 96fe 17bf a6c0 233f 93b6 4bbf
00000060: e235 dd3e 3535 963e c2a6 0f3f a3e1 c23e
00000070: 8bac 3abf aea5 83be 4c91 02bf 5132 29bf
00000080: bbee 773d 1f90 743c f787 a7bd d7db 6e3e
00000090: 73c4 9b3e 441c 7e3f 1aa6 11bf 492b 73be
000000a0: 3feb 56be f23c b43e 17c2 5dbf 8c94 06bf
000000b0: 9a6a b73e d273 3b3f 3667 8fbe d357 e2bc
000000c0: 4aa5 e0be e9ee 283f 2130 e4be e85e 093f
000000d0: 19c2 24bf 119a b83e c7bd 4fbf b4f6 ee3e
000000e0: 7f6b b2be 76e3 a83e f7f0 74be 9c41 113f
000000f0: 5641 86bf 7807 b7be f04d 893e 4ec7 b83e
00000100: 112b cabe 816b bc3e 5a57 0d3f d5b9 743f
00000110: b966 67bf c81c 39be 4178 853e 6c65 113e
00000120: 98e2 083f b847 fe3e c73d d13e d654 fe3e
00000130: a9b7 1b3f 66a2 753e 3cc1 f23d 52c0 ac3e
00000140: 1577 85be e435 9dbe e121 b1be 6809 01bf
00000150: 06f2 fabe 14b1 10bf 4dc5 24be 543d d3bd
00000160: 3994 323e b695 11be 8c79 eabb aa82 8a3d
00000170: 4f67 353f 314a 3e3f 3ceb 513f b6a0 513f
00000180: 683e 873d 9da4 c43d e3cb b43d fcec 9a3e
00000190: bc55 b1be 952c 653d e0f8 f1be 75e9 043e
000001a0: 06a7 5ebd bbc3 b13e 395b ebbb 5537 703e
000001b0: dfed dc3e c522 f93e ffa1 bf3e 1cf0 e13d
000001c0: 0c57 11bf 2a76 dbbe 0008 51bf eaee 3dbf
000001d0: 51b6 ae3e 7a0b dd3e 678d cf3e 4e04 d03e
000001e0: 8a76 483f ff17 f23e 8941 3d3f 5412 903e
000001f0: 32ca 6fbe 62ba 06bf 0551 63be 0e17 2dbf
00000200: ad57 c2bc 978b 61be ef21 2ebe 7580 f8be
00000210: 035f be3d b9ca e1bd 8c3c 6ebc c4cc c83d
00000220: 1f2f ba3e 8dd9 a03e cff8 8e3e 6ee1 b73e
00000230: 6905 36bf df84 75be e550 0ebf 96fb a5be
00000240: a903 bebe 14d2 84be 0c5b c7be 65f3 93be
00000250: c326 57be faad e33c de41 c4be a116 0bbf
00000260: fe48 d33e 50d3 ddbd 8c6e 533e e830 8c3e
00000270: cc65 ff3d eb1a e5be 6a7c debe 4d7a 19bf
00000280: d5b7 423f f15d 2f3f 4147 593f d698 1d3f
00000290: 7da9 5f3d cf98 7abe 5da8 1cbe 78ee 1ebf
000002a0: d0bd 1b3e d140 17bf 8dc7 a53e b407 f4be
000002b0: 4cd4 263e d6b9 6cbe fd3e 3d3e 5b8d 23bf
000002c0: 66a2 283f 942a b03d 9874 dc3e e75a 643e
000002d0: 1a16 7f3e 8f60 8b3e 86c8 8b3e 4f06 b03e
000002e0: 23cb f93d 2d41 343e acd9 4a3e 210f 793e
000002f0: 6513 b9be cd57 f0be 85df 04bf 12ac 12bf
0.3336961 0.2793217 0.2048858 0.29450577 -0.15882324 -0.3176194 -0.32228848 -0.21770015
0.350344 -0.16047339 0.34561136 -0.057996325 0.29057062 -0.27256683 0.6298322 -0.5394786
0.70880115 -0.7602888 0.77525324 -0.88406026 0.8264626 -0.5937284 0.63965833 -0.7957546
0.43205172 0.2933747 0.5611383 0.38062772 -0.7291953 -0.2571234 -0.51002955 -0.660924
0.060530405 0.014926939 -0.0818023 0.2332605 0.30423316 0.9926188 -0.56894076 -0.2374698
-0.20988177 0.35202748 -0.8662428 -0.52570415 0.35823518 0.732236 -0.2800843 -0.027629768
-0.43876106 0.6598955 -0.4456797 0.5366044 -0.6435867 0.36055043 -0.8114895 0.46672595
-0.34847638 0.3298604 -0.23920046 0.56740737 -1.0488689 -0.35747886 0.26817274 0.36089557
-0.39485982 0.3680077 0.5521141 0.9559606 -0.9039112 -0.18077385 0.2606831 0.14198846
0.53470755 0.49664092 0.40867445 0.496741 0.6082712 0.23987731 0.11853263 0.3374048
-0.26067415 -0.30705178 -0.3459616 -0.5040498 -0.49012774 -0.565202 -0.1609089 -0.10314432
0.17439355 -0.14217266 -0.007155603 0.067632034 0.7086076 0.7433196 0.81999564 0.8188585
0.066037 0.0960171 0.08827951 0.3025893 -0.34635723 0.05595072 -0.4726019 0.12979682
-0.054358505 0.34719643 -0.0071825054 0.23458607 0.4315023 0.4865934 0.3742828 0.11032125
-0.5677345 -0.4286359 -0.8165283 -0.7419268 0.3412347 0.43172818 0.4053757 0.40628284
0.78305876 0.47283933 0.73928124 0.28138983 -0.23416975 -0.5262815 -0.22198875 -0.67613304
-0.023723448 -0.22025906 -0.17005132 -0.48535505 0.09295466 -0.110249944 -0.014540803 0.09804681
0.36364076 0.31415978 0.279242 0.35914177 -0.71102005 -0.23976468 -0.55592185 -0.32418507
-0.37112167 -0.25941527 -0.3893665 -0.28896633 -0.2101088 0.02779292 -0.38331503 -0.54331404
0.41266626 -0.1083132 0.20647639 0.27381063 0.12470588 -0.447471 -0.43454295 -0.5995224
0.76061755 0.6850272 0.8487435 0.61561334 0.054604996 -0.24472354 -0.152986 -0.62082624
0.15209126 -0.59083277 0.32378808 -0.47662127 0.16291922 -0.23117766 0.1848106 -0.63887566
0.658728 0.08601871 0.43057704 0.22300301 0.24910775 0.27222106 0.27301425 0.34379813
0.121969484 0.17602988 0.19809598 0.24322177 -0.3614761 -0.46941987 -0.51903564 -0.5729381

conv1.bias f4 [16]
00000000: 384d 3e3f 0607 0bbd 543f edbe 3f93 86bd
00000010: d989 2f3e c884 82bd b1df 51be 4664 ab3e
00000020: 8149 c43e fb59 22be 2574 a5be 012c 22bf
00000030: e180 07bf a721 a13e 52d4 b83e 2bfe 30bc
0.74336576 -0.033942245 -0.46337378 -0.06571054 0.17142428 -0.06372982 -0.20495488 0.3347494
0.3833733 -0.15854637 -0.32315174 -0.63348395 -0.5293103 0.31470987 0.36099488 -0.010802786

conv2.weight f4 [32, 16, 2, 2]
00000000: 2f17 993e d0c5 5a3e c483 d03e a4e4 ab3e
00000010: 6103 6f3e 5aff 143f ab8e 983e 0c9f 7e3e
00000020: efc1 9abe 3a57 e9bd 7966 a6bd c63d ba3d
00000030: 86a3 973f 92d4 9a3f 91ab 483f b609 2d3f
00000040: c91c 553e 2ff7 443e 9091 453e 9682 123e
00000050: 3428 103f a5b1 403f d67d 853f 00f5 693f
00000060: a475 3e3e 2f20 55bf 1525 063f 43da 00bd
00000070: e41a 1fbf 2c93 d7be b3c0 85bf 605d 6fbf
00000080: 7570 0a3e b64b 2b3e f870 9e3e 8866 a23d
00000090: 3cc8 e1be 2172 abbe ff67 fcbe 89a3 15bf
000000a0: 48e6 a7be fe19 42bf 51e5 c3bd a33b f4be
000000b0: fb3e 3dbe 5b56 8ebe 0d58 11bd 9133 8bbe
000000c0: c81b 953e 63a4 0a3f a332 063e ba3c da3e
000000d0: 15bc 953b 298d 76be c131 edbe 6b4e efbe
000000e0: 1d82 283f 74ff 4c3f 084b 0b3f 7067 1b3f
000000f0: cc1d 94bf 6990 c9bf 56a1 4ebf 4d41 7ebf
00000100: 2387 8f3e 8e6a 9a3e 17e5 dd3e bf54 f63e
00000110: 13ef 17bf 9cb4 35bf e377 44bf fd69 f2be
00000120: 6d18 67bf 180c 45bf b235 29bf d803 f5be
00000130: 5f9f f33e 806a cd3e 6cbe bd3e 6fc5 da3d
00000140: 6dd3 79be 7e2b 96bd a2bf 5dbe 3348 a5be
00000150: f844 fe3e d131 323e 5df5 b23e 6bcc 27be
00000160: 1d2e bfbe 44be 7fbe d265 053f 8b63 543f
00000170: 8710 aabe 1c5b 1dbf fcbc 30bf 55f9 67bf
00000180: cd98 c03d 20a0 3c3e 970b ad3e e42c 5b3e
00000190: ce3a a9be ac1b ebbd f329 d1be c201 aebe
000001a0: 5dd1 8abe fbb8 01be b29d a33c eec4 793c
000001b0: 5e07 23bf bf80 0cbf fbd3 00bf 9ea3 c1be
000001c0: 2688 5bbd 4861 87bc 437e 343d 1e03 cc3d
000001d0: 26e4 d7be 6283 41bf 2e0d 36bf 9c94 4bbf
000001e0: 2167 093f 823c ac3e f765 c43e f8a1 df3e
000001f0: b7c0 ebbe 6ef5 8ebe 3e3d e33c 4429 013d
00000200: 2c7a 303e 21c2 1d3e 03fd 103e 1387 a4bc
00000210: 89d6 0c3f fcf3 913f 8f26 d63e 2311 953f
00000220: 68f2 f5bf b72e c1bf 9974 ccbf a12c aebf
00000230: 737e 0bbf c7e0 85be 3c92 00bf dcfc efbe
00000240: 1527 8dbd fb53 babe df74 6fbe 9355 cebe
00000250: b136 d33e a170 033f cfaa eb3e 05c2 ba3e
00000260: df1f 38bf 13ca d4be 0df6 33bf 85a3 01bf
00000270: 229a 453e ed42 b3be 78af ae3d 4892 c4be
00000280: bcb9 d9bd 92fd 31bd 86f5 01be 533e a6bd
00000290: 2906 92be 856d 77be b722 d0be db31 e1be
000002a0: eacd 63be a1ad b13e 5604 aebd 1913 083f
000002b0: 4dde da3e ac8a 0d3f 7476 053f 1700 d43e
000002c0: e8f0 9dbe 6bdb ed3d 93e4 f7be bd79 ddbd
000002d0: be81 673c 40a7 79ba b7b1 b8bd c2c6 69bd
000002e0: f3b0 ef3d c8e3 bebc 2acf e43d 65ce cdbd
000002f0: 5bda 663e df01 ba3e 38f6 503e f251 0b3f
00000300: 2c04 ab3e 5523 b53e d948 b63e c221 5e3e
00000310: e66f 843f 5da6 653f e06a 743f eebc 943f
00000320: 4c13 163f 1fae 03c0 174c 3d3f ebab 13c0
00000330: 67eb afbf cf98 0dbf 901c d6bf 53fd 75bf
00000340: 29f4 2ebf 34ee f7be f8c5 10bf 658d 8fbe
00000350: e4f7 23c0 458c fabf 0c43 1fc0 76de f9bf
00000360: 1244 cb3e 6709 783d b3a5 f33e 9578 e43d
00000370: 7785 e03d e844 dbbe 4e1f cc3d 6c6b b3be
00000380: 7c92 f63d a5cf 553d 5941 3c3e ec11 51bd
00000390: f79a da3e d514 2abc 1d84 b73e 541c b43b
000003a0: 222f 02bf a268 2fbf ed3c 18bf 2ee6 48bf
000003b0: a375 733e fd39 01bf 0741 0fbd 9b9c 03bf
000003c0: 847a 4abf f9a1 aebd 3dd6 33bf 06f0 b539
000003d0: 9254 ad3d fd00 90be 11f5 83bd e1f7 69be
000003e0: 2473 603e 7013 143e 1881 bb3e dc8e b33d
000003f0: 62ff 35be 31c4 8cbe 3e98 0cbe da7e 3cbe
0.299005 0.21364522 0.4072553 0.33572876 0.23341133 0.58202136 0.29796347 0.24865359
-0.30226085 -0.1139359 -0.08125014 0.090938136 1.1846778 1.2096121 0.7838679 0.6759294
0.20811762 0.19234918 0.19293809 0.14307627 0.56311345 0.75271064 1.0429027 0.91389465
0.18599564 -0.83252233 0.5240033 -0.03145815 -0.62150407 -0.4210447 -1.0449432 -0.93501854
0.13519461 0.167281 0.30945563 0.079297125 -0.4409808 -0.3348551 -0.49298093 -0.5845266
-0.32792878 -0.7582091 -0.09565223 -0.4770175 -0.18481056 -0.2780026 -0.035484362 -0.2718778
0.29122758 0.54157084 0.13105254 0.42624456 0.0045695403 -0.24077286 -0.46327022 -0.46739516
0.6582354 0.8007729 0.54411364 0.6070471 -1.1571593 -1.5747195 -0.8071493 -0.9931839
0.2803279 0.3015942 0.43338844 0.4811153 -0.59349173 -0.70978713 -0.7674543 -0.47346488
-0.90271646 -0.7697158 -0.6609756 -0.47854495 0.47582528 0.40120316 0.37059343 0.10682189
-0.24397059 -0.07332514 -0.21655133 -0.32281646 0.49661994 0.17401816 0.34952822 -0.16386573
-0.3733987 -0.24974924 0.5210849 0.8296439 -0.33215734 -0.61467147 -0.6903837 -0.90614825
0.094041444 0.18420458 0.33797905 0.21403843 -0.33052677 -0.11479887 -0.40852317 -0.33985716
-0.27112857 -0.1266822 0.019972656 0.015244706 -0.63683116 -0.5488395 -0.50323457 -0.37820143
-0.05359664 -0.01652588 0.044065725 0.09961532 -0.4216625 -0.755911 -0.7111386 -0.79523635
0.5367299 0.33639914 0.38359043 0.4367826 -0.46045467 -0.27921623 0.027739163 0.031533495
0.17234105 0.15406086 0.14159016 -0.02008394 0.55014855 1.1402583 0.41826293 1.1645855
-1.9214602 -1.5092381 -1.5973083 -1.360737 -0.5448982 -0.26148054 -0.50223136 -0.46872604
-0.0689222 -0.36392197 -0.23384427 -0.40299663 0.41252664 0.51343733 0.46028754 0.3647615
-0.7192363 -0.4156042 -0.7029732 -0.50640136 0.19297078 -0.35011998 0.08529562 -0.38392854
-0.10631129 -0.043454714 -0.12691316 -0.08117356 -0.28520325 -0.24162872 -0.40651485 -0.4398335
-0.22246519 0.3470278 -0.08496921 0.5315414 0.42747727 0.5528972 0.5213387 0.4140632
-0.3084786 0.11614116 -0.48416576 -0.10814235 0.014130054 -0.00095235184 -0.090182714 -0.057074316
0.11703672 -0.023301974 0.11172326 -0.10049132 0.22544234 0.36329553 0.20406425 0.54421914
0.3340162 0.3537852 0.35602453 0.21692565 1.0346649 0.89706975 0.9547558 1.1620157
0.58623195 -2.0575025 0.7394423 -2.307368 -1.3743714 -0.5531129 -1.6727467 -0.9608967
-0.6834131 -0.48423922 -0.56552076 -0.28037563 -2.562005 -1.9574057 -2.4884672 -1.9521015
0.3970037 0.06055584 0.47587356 0.11155812 0.109629564 -0.4282601 0.099669084 -0.35042894
0.120396584 0.05219998 0.18384303 -0.051042482 0.42696354 -0.010380943 0.35842982 0.005496541
-0.5085317 -0.6851903 -0.59467965 -0.78476226 0.23775344 -0.5047911 -0.034974124 -0.51410836
-0.79093194 -0.085269876 -0.70248777 0.00034701842 0.08463396 -0.28125754 -0.06443227 -0.22848465
0.21918923 0.1446054 0.36621928 0.08767483 -0.17773202 -0.27493432 -0.13729951 -0.18407765

conv2.bias f4 [32]
00000000: 9020 c73e 57ee 1b3f 1fff 113f c37c 043f
00000010: dd83 4e3e d13f 79bf 5a65 a8bd c105 06bd
00000020: 0d29 f53d 26be 03be f962 953b d137 003f
00000030: 524b 5e3e 61ba efbe 7787 e93e d946 b73e
00000040: 4215 21be 81a9 3abe 9405 46be abb5 e0be
00000050: 7f29 56bd 514b 0e3f dc63 c5bc 43ba b8be
00000060: cae4 acbc fd5c 16be 57f1 a83e 96c7 a73e
00000070: c521 38be cbfc 28bd 3f0f a23e 64c7 ae3e
0.3889203 0.6091055 0.5702991 0.5175287 0.2016749 -0.97363 -0.08222456 -0.03272033
0.119707204 -0.12865505 0.0045589176 0.5008517 0.2170842 -0.46821883 0.45611164 0.3579624
-0.15730765 -0.18228723 -0.19338065 -0.43888602 -0.052285668 0.55583674 -0.024095468 -0.36079606
-0.021105189 -0.1468391 0.32996628 0.3276946 -0.17981632 -0.041256707 0.31652257 0.34136498

conv3.weight f4 [64, 32, 2, 2]
00000000: 2a70 2dbf 9b45 2bbf 1ec5 34bf 2e8c 45bf
00000010: a4e1 8bbf 7364 80bf ac4b a1bf d125 98bf
00000020: bd48 e83e 307e 883e f200 073f 73f3 ee3e
00000030: c471 6e3f 09b7 4c3f a1ad 553f d50a 4b3f
00000040: 91cc 973e a78d e73d 36db 9b3e 3302 8f3e
00000050: 168e a5bf eff7 a7bf 7014 abbf db41 aebf
00000060: 9d4e f23c f0be 803d dbcc bbbc f8f5 253d
00000070: db0e 16bf 3839 98be be7a 0ebf 3d9b 75be
00000080: 5bfd 873e ece2 dbbe d9de bb3e 1ac2 39bf
00000090: 00cd 4a3d cc81 0b3d 8956 10be 1ee8 eebd
000000a0: 77c0 8fbe 80ca 00bd ca6a 85be d866 fe3d
000000b0: 2dbd 54bf ebf6 e6be c1a9 34bf 635d 1ebf
000000c0: c51a 43be ed0c 80be 092a 03be 94e1 1f3d
000000d0: 25e1 9ebe 5cfd dabe a655 20bf 5364 05bf
000000e0: 2718 5cbd e3d2 80be 70b3 d0be f04e 1abf
000000f0: b2a8 623f 5fe5 583f 70d0 873f 0448 623f
00000100: 987b c3bb 1a84 3cbd c477 32bd 48ba a3bd
00000110: 95c5 bb3d b984 e23c 1957 e1bc e73d 92bc
00000120: a66a 913d b8e1 853d 671e 86bd b6d4 86bd
00000130: 1c2d fb3d 5fc7 853d cfff edbc 1eba 853d
00000140: 3ebf 4ebd 9245 2b3d 3c1f 97bb c572 c23c
00000150: 725e 94bd 33b9 e93d bf37 b03d 8ba7 513e
00000160: 4fff bbbd 0e9e b6bc 7a13 86bd bddc 45bd
00000170: 45a8 20c0 b743 2ac0 4dbd f8bf 9147 20c0
00000180: 15fc 633d 6464 923d 2be6 a5bd 4c65 6ebd
00000190: c981 0f3d f074 78bd 9a9f 96bc fb07 65bd
000001a0: c8b8 1b3f ee31 b33d 9f71 3e3f 543e b03e
000001b0: 0a59 963c 7c5e f8be 9ff8 383d 8d10 15bf
000001c0: af2c 5dbd d795 a1bd 4c10 02bd 2e57 a63c
000001d0: 63de 2e3e a687 ff3e c2c4 543e 5788 1b3f
000001e0: dc69 2e3e 5b00 8bbe 4745 dc3e 3e34 0dbf
000001f0: 6961 1f3f 943e 58be cb74 8a3f 70cc 6dbe
00000200: 3a26 503c 95a9 6f3b 3e4d 91bd 8dec 1fbd
00000210: 1754 0bbb 4076 11bd f9a9 923d 7940 af3d
00000220: 6ce5 cabc e53a c1bd f893 893c 2d8c 03bb
00000230: befa 68bc c98a 7abc a115 e6bd bcd0 bdbc
00000240: f1ca 66bd 70f6 6a3d aa41 003d b20e 253d
00000250: 400c 6ebe a44b 0fbe f10e 82be 71ba 33be
00000260: 07ed 013d 1f16 803d 927e ecbc ee67 29bd
00000270: c4cb a0bb 2b36 00be 8c1c 393c 2d82 cabd
00000280: 2e0b 133c dcee a1bd 6cfa 69bd 1364 4dbd
00000290: f044 75bd f667 4bbc c6e5 8ebd a6aa 63bd
000002a0: 9c42 5fbd bc5d a1bd eac4 84bd 59f7 6e3d
000002b0: ded0 05be ed02 1ebd 0d45 07bd b8b0 37be
000002c0: f340 bd3b 7d1a 62bd 5857 d63c 8c8a bebc
000002d0: 52de 30be b316 eebd d7a5 72bd 7721 0abe
000002e0: 0bd5 8fbd de9c bbbd 8b0a 0fbd 57da a3bd
000002f0: 3b27 27be 25f5 dbbd 87a5 c8bb 89bc 1dbe
00000300: bf25 98bc d461 ddbc bb17 233b 44e0 a13d
00000310: 8e03 7abd 46fa b03c 255f 1dbd 4aa3 c3bd
00000320: 7267 9cbd 5546 933d 5a5d acbd d933 4f3d
00000330: a158 14bd 9cd3 ad3c 00de 15bd ffe9 3ebd
00000340: 9671 d1bd c7bb 273d 8d14 cabb 46cd 50bd
00000350: 979c d4bd 8db2 153d 7ed2 bdbd 202c d63c
00000360: 9e8b 6c3b 67a5 a9bd 6b21 66bd 7132 a7bd
00000370: 61ea e73b 7e0b 33bd 7e9c efbc 6df1 72bd
00000380: ec2f 91bd f624 c93c dcaa 8bbd 0040 60bd
00000390: 7e23 d33c 329a a7bc 41d4 bc3c a5bc 963d
000003a0: 48a0 1bbd 98e2 6ebc a5ed 7d3d 71ab 8c3d
000003b0: 62b1 a23d bd0c eabc 60dc 443d 27f9 40bd
000003c0: 9a84 80bd 2fb1 a6bc 2606 a9bd 9c17 84bd
000003d0: 66d3 cdbd 2c7d a9bd 8c47 bebd 236c 81bd
000003e0: 3d2b 97bc 9aae 833c b822 a83c c67b f43c
000003f0: 8662 393c a985 1d3c 20aa e03c 835d 78bd
-0.67749274 -0.66903085 -0.70613277 -0.7716702 -1.0928235 -1.0030655 -1.2601218 -1.1886541
0.45367995 0.26658773 0.5273582 0.46670112 0.9314234 0.7996679 0.8346806 0.79313403
0.2964826 0.11306315 0.30440682 0.27931365 -1.2933986 -1.3122538 -1.3365612 -1.3613847
0.029578501 0.062864184 -0.022924831 0.040517777 -0.5861642 -0.29731154 -0.5565604 -0.23985
0.26560482 -0.42946565 0.36693457 -0.725618 0.04951191 0.03405933 -0.1409551 -0.116653666
-0.28076527 -0.03144312 -0.26058036 0.1242196 -0.8310116 -0.45110258 -0.70571524 -0.61861247
-0.1905318 -0.25009862 -0.12809004 0.039033487 -0.31031147 -0.42771423 -0.6263069 -0.5210621
-0.05373397 -0.25160894 -0.407619 -0.602767 0.8853866 0.8472499 1.0610485 0.8839114
-0.0059656613 -0.04602442 -0.04357125 -0.07994515 0.09168545 0.027651178 -0.027507352 -0.017851783
0.0710042 0.06537193 -0.065487675 -0.0658354 0.12264463 0.06532168 -0.029052643 0.0652964
-0.05047535 0.041814394 -0.0046118777 0.023736367 -0.072445765 0.11412277 0.08604383 0.20474069
-0.091795556 -0.022292163 -0.065466836 -0.048306216 -2.5102704 -2.660383 -1.943277 -2.504368
0.055660326 0.07148054 -0.08100542 -0.058202073 0.035035882 -0.060658395 -0.01838665 -0.055915814
0.6082883 0.08749758 0.7439212 0.34422553 0.018353004 -0.48509586 0.04515898 -0.5822838
-0.05399769 -0.07889908 -0.031753823 0.020305242 0.17077021 0.4990818 0.20778182 0.60754913
0.1703257 -0.2714871 0.43021604 -0.5515784 0.6225801 -0.21117622 1.0816892 -0.23222518
0.012704426 0.0036569585 -0.07094811 -0.03904395 -0.0021259838 -0.035513163 0.07161326 0.08557219
-0.0247676 -0.09435061 0.01679419 -0.0020072565 -0.014219938 -0.015291878 -0.11234594 -0.023170821
-0.056345884 0.057363927 0.031312622 0.040297218 -0.2324686 -0.13993698 -0.25402024 -0.1755159
0.031720188 0.06254219 -0.028868947 -0.04135888 -0.0049071033 -0.12520663 0.01129831 -0.0988811
0.008974833 -0.07906887 -0.057123587 -0.050144266 -0.059880197 -0.012414923 -0.069774196 -0.055582665
-0.054506883 -0.078792065 -0.06482871 0.058341358 -0.13067958 -0.03857701 -0.033024836 -0.17938507
0.005775565 -0.055201042 0.026164696 -0.023259424 -0.17272308 -0.11625423 -0.05924019 -0.13489328
-0.070230566 -0.091607794 -0.034922164 -0.080006294 -0.16323559 -0.10740117 -0.006123248 -0.15403952
-0.018572686 -0.027024187 0.002488597 0.079041034 -0.061038546 0.021603715 -0.038420815 -0.09552629
-0.07636918 0.07191149 -0.08416243 0.050586555 -0.036217336 0.021219067 -0.03658867 -0.046609875
-0.10226743 0.040950563 -0.0061670006 -0.050977014 -0.1038143 0.036547232 -0.09268664 0.026144087
0.003609396 -0.08283501 -0.056184214 -0.08163918 0.0070775007 -0.04371213 -0.029249426 -0.059312273
-0.070892185 0.024553757 -0.06819698 -0.054748535 0.02577376 -0.020459268 0.02305043 0.073602
-0.037994653 -0.014580391 0.061994214 0.06868637 0.07943989 -0.028570527 0.04806173 -0.04711261
-0.06275292 -0.02034816 -0.08253126 -0.06449816 -0.10050087 -0.08275828 -0.0929099 -0.063194536
-0.018453235 0.016074467 0.020524368 0.029844176 0.011314994 0.009614387 0.027424872 -0.060636055

conv3.bias f4 [64]
00000000: 54ba 143f 4076 e6bd 8f6b 2d3b ac74 733e
00000010: cef4 89be 04df 1bbe b991 033e adbe da3b
00000020: 4473 2d3d 3621 9b3e 019d 463d 96a7 1abe
00000030: f4d7 e33e 822e 2bbd 53a3 c9bd b425 78bc
00000040: 858b 673d 69b1 803e bc82 20bf a2ff 2abe
00000050: cb1a 1a3e e517 28be de73 42be 1487 13bd
00000060: 2766 e9bc e657 cebd f6fe 6b3e 9239 bc3d
00000070: bf85 23bc 4923 d83e e16f 15bd a435 22be
00000080: 1381 733e 7ad2 f63c 14be f3bd d50f db3d
00000090: 37fa dfbd 1a60 ad3e 4a89 90bd 0199 dabe
000000a0: 3574 babd 91c6 963d 550e a53d 48d5 96bc
000000b0: 4e88 0abf 5efc 9c3d 2186 a5be 7292 fd3c
000000c0: 3ef1 c5bc 7658 6bb8 6f99 243d 8d17 94bd
000000d0: 3c97 d5bd eec9 ca3c 7269 7cbd 704e 7bbe
000000e0: 43fd 7c3e b68b fbbd fe74 34be eaef c1bd
000000f0: 6ffc a9bd fac9 d4bd e761 1bbe 221e b4bd
0.58096814 -0.11253023 0.0026461815 0.23774976 -0.26944584 -0.15221792 0.12848558 0.0066755624
0.042346254 0.30298775 0.048489574 -0.15102991 0.44500697 -0.0417924 -0.09845605 -0.015145708
0.05652954 0.25135353 -0.62699485 -0.16699079 0.15049283 -0.16415365 -0.18989512 -0.036017492
-0.028491093 -0.10075359 0.23046479 0.09190668 -0.009980618 0.4221442 -0.03648365 -0.15840775
0.23779707 0.03012966 -0.11901489 0.10696379 -0.109363966 0.33862382 -0.07057436 -0.42694858
-0.09104196 0.07362092 0.08059374 -0.018412247 -0.54114234 0.07665323 -0.32328895 0.03095362
-0.024162885 -5.611075e-05 0.04018539 -0.072310545 -0.10429236 0.02475449 -0.061623998 -0.2454164
0.24705987 -0.12282507 -0.17622754 -0.09469588 -0.08300101 -0.103900865 -0.15174066 -0.0879481

fc4.weight f4 [133, 64]
00000000: ad79 543e 24c8 913d 8cfd 8b3d 7e74 e5be
00000010: 6d0d cfbd f5f6 8ebd 85cc 1b3e 8534 99bc
00000020: 1032 3b3d 1b4e 6dbd 5f07 cabc 3653 383c
00000030: e681 aebf ac69 ed3c e630 9a3d 2602 6d3d
00000040: c91d 7abc d009 ab3e 9174 933e e9d4 4ebe
00000050: f4f5 9b3e 8415 c8be c20c 9fbc 57a6 ad3c
00000060: 650a b1bc 8b96 60bd 1bf3 093e f815 4fbe
00000070: ff49 e13c 19ef 0ebf 7788 5e3a 6042 ff3e
00000080: cdb1 d4bc f86d eebd 74b4 373d c765 37bf
00000090: 766d 7f3d 6eac 1d3f 510a de3d 7b11 913e
000000a0: 24a2 99bd cf91 3a3d 4352 4f3e d8e4 9fbd
000000b0: 593f 7cbd efd1 ffbd 57f5 ba3e 720e 2c3e
000000c0: d576 b23c f2af 1f3d 0203 6ebe 3bd4 4d3e
000000d0: 1ee4 8dbd 61ca 373d c4dc 88bf 0913 4dbe
000000e0: a951 5abe 4c6b e03a cfd5 8cbf 89e4 2a3d
000000f0: 724c 87be 8b19 c73c 4a97 afbd 170a 8cbe
00000100: e978 353f 766b b33a 8103 dc3c bee6 32bd
00000110: 4084 0dbe 7c9f 85bd 33f0 bd3d 1a17 563d
00000120: 5f4f bfbd 511a 27bf c64d 91bc 26c7 b6bd
00000130: d3f2 16bf 3b24 41be a437 b4bd 0ed1 403d
00000140: e4bb 813d 5e54 a03d 0337 a9be dd03 6cbd
00000150: 77b5 7ebe 3b7a 063b fe78 9bbd b78c 0ebd
00000160: e3e3 50bd 030f cabd 4e9d 9abd 6694 16bf
00000170: 3ee5 853d ce4e 46bd d3c3 673c 582c f53e
00000180: 9fbd 7b3e 7220 98bd 2f38 173d 3901 283e
00000190: 5f56 c1bd 8a40 c9bd 9538 6dbd 3ebc 1fbe
000001a0: d68d b1bd 685d bc3d 1f38 003e 7213 c8bd
000001b0: 0650 98be f153 01be cfbd 5c3e 7535 1fbd
000001c0: 8ea1 fdbc 4065 d3bd 6b96 80be 25e5 a43d
000001d0: 94cf 3d3c 7a94 153d 765a b9bc 141e 583d
000001e0: 1d27 933e e6fd 393e 570f d7be 626d 213e
000001f0: f5b5 843e 195d acbd 5f3e 4ebe 2a94 dbbd
00000200: fe31 b2be 3f56 a8bd 7f61 b93d d310 ccbe
00000210: 4510 a7bd 52ef 5c3d de2b 04bf 11ba e63d
00000220: 8707 dfbc 9735 0ebf c0bf 9ebd f7eb ce3d
00000230: 456c ecbe bde0 0abe cdd9 f43d 0409 453d
00000240: 0dcc 92bc cb9f d23c 9758 043e 2dad b7be
00000250: 1b36 5d3e 573a a63e ea4f 0f3e 57ec f8bd
00000260: 2d7d b0bc 032a 0dbe f651 71bc d5a2 23be
00000270: 7ea3 25be 70d5 cf3c 9d67 d7bd 2c4b b4be
00000280: 7c43 01bd 4168 0abe 19e6 bebd 667b 9e3e
00000290: 6f52 0ebc 487d 9b3c f51f 00be 0b98 bc3e
000002a0: efc4 4bbc dc16 41bd ca4e aebe 2d6d 683d
000002b0: 2e95 9bbe 7689 ae3e 1ebe 4ebc f08f 3fbe
000002c0: 56d1 29bd a59d 1abd dae1 04bc 3ab0 b83d
000002d0: 8203 a23d a54a 6f3c b336 2ebf ed2c 803d
000002e0: 38a3 62be 9ae4 3d3d 7f01 70be 147b ccbc
000002f0: fe95 4fbe fb3d adbe b820 35be bd3a 323d
00000300: dfae 113d 4d03 e1bb 4afe 4cbd c5e4 b03e
00000310: c516 e3bc 851a 9cbe cae2 0b3e cb4b 19bd
00000320: 32ae e0bc 11de a8bd 9b4d 89bc 07f7 89bd
00000330: 5326 9f3e 77b7 56bd e737 9d3c 07d9 cdbc
00000340: fa51 a6bc 44c7 40be 9e57 e2bb 4f94 38be
00000350: 9eb7 44bf 6789 1f3e 30ef 74be 2c07 c2bd
00000360: 44fd b5bd 2fea 6d3d 88f8 21bf 4dd5 13be
00000370: b60d a2bc 07d5 4bbe ad58 97bb c56a 66bf
00000380: 9452 813e 0cf4 edbd ee35 60bd e8ce 61bc
00000390: bae7 49be 6773 85be ccdc 12bd 80a5 1fbf
000003a0: cc72 60bd ad81 123e 525b 803e eb26 a33d
000003b0: d8ad 783e 6b0f a0bf b31e 86bf f8ff 9cbc
000003c0: d49b 92bd ce2a e1bc 12c6 2ebe e154 9fbe
000003d0: cfc3 9bbd f292 13bd 2ac5 80be 8123 343e
000003e0: 4b28 a63e 699d c5bd ca11 98be da29 343c
000003f0: 9357 12bf d055 03bd 5193 e13d 8e09 3fbe
0.2074954 0.07118252 0.068354696 -0.4481544 -0.10109983 -0.06980697 0.15214737 -0.018701801
0.04570204 -0.057935815 -0.024661718 0.011250308 -1.3633392 0.028981052 0.07528858 0.057863377
-0.01526589 0.33405924 0.2879987 -0.20198406 0.30461085 -0.39078915 -0.019415263 0.021197481
-0.021611402 -0.05483107 0.13471644 -0.20223224 0.027501104 -0.55833584 0.0008488963 0.49855328
-0.025963688 -0.116420686 0.044849828 -0.71639675 0.06236025 0.6159123 0.108418114 0.2833365
-0.07501629 0.04554921 0.20246224 -0.0780732 -0.06158385 -0.124912135 0.36515304 0.16802385
0.02178518 0.038986154 -0.23243335 0.20100491 -0.069282755 0.044870738 -1.0692372 -0.20026793
-0.21320213 0.0017121821 -1.1002749 0.041721854 -0.2642551 0.024304172 -0.08573778 -0.27351448
0.7088762 0.0013688642 0.02685714 -0.043677084 -0.1381998 -0.0652456 0.0927433 0.052268125
-0.09341311 -0.6527453 -0.01773728 -0.08924703 -0.5896427 -0.18861477 -0.08799675 0.04707437
0.063346654 0.07828592 -0.33049783 -0.05762087 -0.24873911 0.0020519632 -0.07591437 -0.034802165
-0.05099858 -0.098661445 -0.07549535 -0.5882019 0.06537865 -0.048414998 0.014145809 0.47885394
0.24584053 -0.074280635 0.036918815 0.16406716 -0.09440302 -0.09826763 -0.05791529 -0.15599152
-0.08669631 0.09197503 0.12521408 -0.09769334 -0.29748553 -0.12629677 0.21556781 -0.03886934
-0.030960824 -0.10322046 -0.2511476 0.08051518 0.011585135 0.03651855 -0.022626143 0.05276306
0.2874078 0.18163261 -0.4200389 0.15764382 0.25920072 -0.084161945 -0.2014098 -0.107216194
-0.34803766 -0.08219575 0.09051799 -0.39856586 -0.081574 0.05393917 -0.51629436 0.11265958
-0.027225269 -0.5555052 -0.07751417 0.101036005 -0.46176353 -0.13562293 0.11955605 0.0481043
-0.017919565 0.02571096 0.1292442 -0.3587431 0.21602671 0.32466385 0.13995329 -0.12154453
-0.021544063 -0.13785557 -0.014729014 -0.15980084 -0.16175649 0.02537033 -0.105178095 -0.35213602
-0.0315585 -0.13516332 -0.093212314 0.3095352 -0.008686646 0.018980637 -0.1251219 0.3683475
-0.012437089 -0.04714094 -0.34044486 0.056744743 -0.30387253 0.3408925 -0.01261857 -0.18707252
-0.041459404 -0.037747998 -0.008110488 0.090179875 0.07910825 0.014605199 -0.68052214 0.06258569
-0.22132576 0.04636059 -0.2343807 -0.024961032 -0.20272061 -0.3383635 -0.17688262 0.04351305
0.03556716 -0.0068668486 -0.050047196 0.34549537 -0.027720818 -0.30488983 0.13660732 -0.037425797
-0.027426813 -0.08245481 -0.016760638 -0.0673657 0.31083927 -0.05242106 0.019191695 -0.0251279
-0.020302761 -0.18826014 -0.0069074174 -0.18025325 -0.7684268 0.15579759 -0.23919368 -0.09474024
-0.08886197 0.058084663 -0.63269854 -0.14436837 -0.019781929 -0.19905482 -0.0046187253 -0.9000667
0.25258315 -0.11618814 -0.05473893 -0.01378224 -0.19717303 -0.26064608 -0.0358551 -0.6236191
-0.05479698 0.1430728 0.25069672 0.079664074 0.24285066 -1.2504705 -1.0478119 -0.019165024
-0.07158628 -0.027486231 -0.17067745 -0.31119445 -0.07605707 -0.03602881 -0.25150424 0.17591669
0.32452616 -0.09649164 -0.29701072 0.010996306 -0.5716488 -0.03206426 0.110144265 -0.18655989

fc4.bias f4 [133]
00000000: 56a8 123f 969c c4be 30b6 a2bd 29ce 823e
00000010: 874b eabe 91f5 893f 1987 5ebe f283 8f3c
00000020: 66e0 703e dedd 803e 9db4 ddbe 2e6f 52bf
00000030: b523 8dbe a92e a7be 70b4 15bf 5028 eebe
00000040: e326 00bf 95d4 953c c9bf c63e 2ddb ce3d
00000050: 6027 0a3e 1ec6 963c d84e 5bbf 8546 3e3f
00000060: b89d c6be 0271 01bf 98b1 6b3e bce3 1bbd
00000070: 7975 a3be f6e5 0d3f 0c2a 52be d742 7c3e
00000080: 990a 013e 470f b03c 951e ffbc 2eab babe
00000090: 8c97 f0be ad42 503f 39b0 133f c6e1 a53d
000000a0: 2b00 85bd fec5 173f b43f c33c 5d53 8dbd
000000b0: 6824 003e 7142 f7be c1cb 393f aa1e aa3e
000000c0: e33a d43d 0426 7d3e 2c41 3a3e bfbe 363e
000000d0: f48c d5be 2ce2 dabd dfa4 eabd 0f75 ec3d
000000e0: be02 d2be e378 9d3e dd02 a6be cb5b b4bd
000000f0: a96d 63bf e9b0 3dbf 682e 2abe dd73 3abf
00000100: 98c6 54bf 2d96 32be d723 2e3e 3758 b4bd
00000110: 23f8 c7be 7788 8fbe e377 193e ce1d 88bd
00000120: 906d 0c3c f2ce 4d3e 8290 2e3f 936c 5b3d
00000130: e513 26bf 3670 e1be 3d7d d93e b1f6 1dbf
00000140: b423 a2bb 34c1 263f 7ba4 afbd 726c 33bd
00000150: 6bf0 9dbe 2c06 ddbe 1e9b 623f bd01 753e
00000160: ff04 e83c da19 f43e 1ec5 adbd 6811 35be
00000170: dc4f a83d 2bb0 133e 61ff 7a3f 1984 4e3e
00000180: 3edd 5c3f 408c 1fbe 3fec 8f3d 2fe2 b4bc
00000190: d7e4 353f bed6 d13d 661a 66be 36d3 a93d
000001a0: ba76 febd 6103 a13e ae7e 383e 796a 953e
000001b0: e5ae 2fbe 981a 12bd e03d 2a3d cb8d e13d
000001c0: eb59 2e3f 81ef 29be 9508 21be 231b 433d
000001d0: c81f 2c3d bd3b 833b 1b05 1f3d b7b1 283f
000001e0: e60e 853e 7817 33bf f4bc 8f3e c223 9b3e
000001f0: 2745 efbe bbf2 11bf ea7f 19bf 108c 8bbe
00000200: bc5a 36bf a4f8 53bf 5a5a c7bc bb26 1c3f
00000210: 7b15 b7be
0.5728811 -0.38400716 -0.07944906 0.25547913 -0.45760748 1.0778066 -0.21731223 0.017518971
0.23523101 0.2516927 -0.4330186 -0.82200897 -0.27566305 -0.32652786 -0.5847845 -0.4651513
-0.50059336 0.018289844 0.38818195 0.10100398 0.13491583 0.018405017 -0.8566718 0.74326354
-0.38792205 -0.5056306 0.23016965 -0.03805898 -0.31925562 0.5542902 -0.20523852 0.24634872
0.12601699 0.02149166 -0.031142512 -0.36458725 -0.4699062 0.8135174 0.5769077 0.080997035
-0.06494173 0.5928649 0.023834087 -0.06900666 0.12513888 -0.48292878 0.7257653 0.3322652
0.10362794 0.24721533 0.18188924 0.17846201 -0.417091 -0.1068767 -0.11457228 0.11545765
-0.41017717 0.30756292 -0.3242406 -0.088065706 -0.88839203 -0.7409807 -0.16619265 -0.72833043
-0.8311553 -0.174401 0.1700586 -0.08805888 -0.390565 -0.28033802 0.1498714 -0.0664631
0.008571044 0.20098475 0.6818925 0.05357034 -0.64874107 -0.44030923 0.42478362 -0.61704546
-0.004948104 0.65138555 -0.08576294 -0.043804593 -0.30847487 -0.4316877 0.8851794 0.23926444
0.028322695 0.47675973 -0.08484863 -0.17682421 0.08218357 0.14422671 0.9804593 0.20167579
0.8627509 -0.15580845 0.07027482 -0.022080509 0.71052307 0.10246037 -0.22471008 0.082922384
-0.12424989 0.3144789 0.18017074 0.29182795 -0.1715656 -0.035669893 0.041562915 0.11013373
0.68105954 -0.1659527 -0.1572593 0.0476333 0.042022496 0.004004924 0.03882323 0.6589617
0.2598793 -0.69957685 0.28073847 0.3030072 -0.46732447 -0.57011 -0.59960806 -0.27255297
-0.712322 -0.8280127 -0.024335075 0.609966 -0.35758576
